学生考试成绩数据分析与可视化/net_params.pkl (torch, 23142 bytes, 6 tensors)

fc1.weight f4 [64, 11]
0	0x3eab6794	0.3347746
1	0xbe70a522	-0.23500493
2	0x3e52a94d	0.20572396
3	0xbddd06f7	-0.10792344
4	0x3edeff6d	0.4355425
5	0xbe7c1869	-0.24618687
6	0xbde20e0a	-0.11037834
7	0xbc9b19ff	-0.018933294
8	0x3e0adb90	0.13560319
9	0xbe47f9cd	-0.19528885
10	0x3c19ae68	0.009379961
11	0xbe09745a	-0.13423291
12	0x3d828209	0.063724585
13	0x3d80bd83	0.062861465
14	0xbe288fdc	-0.16461128
15	0xbe18c7fe	-0.14920041
16	0xbc99d757	-0.01877944
17	0xbd530e5a	-0.05152736
18	0xbbc7a526	-0.0060926853
19	0x3da1faff	0.07909202
20	0xbe6b7b6d	-0.22996302
21	0x3e00c9e3	0.12577014
22	0xbe2c58eb	-0.16830795
23	0x3e2d45ff	0.16921233
24	0x3bd32034	0.006443048
25	0xbe0722d7	-0.13196884
26	0x3e03ad17	0.12858997
27	0x3e225361	0.15852119
28	0x3d6ee62c	0.058324978
29	0x3e16695d	0.1468863
30	0xbe2ca126	-0.16858348
31	0xbcf0916f	-0.029366223
32	0x3b913944	0.0044318754
33	0xbe029963	-0.12753825
34	0xbd343974	-0.044000104
35	0xbd7a6e1d	-0.06114017
36	0xbde9c68d	-0.11414824
37	0x3d09c30e	0.033633284
38	0xbce6da15	-0.028180161
39	0xbdd98ee9	-0.10622961
40	0xbcf63dfe	-0.030058857
41	0xbd5fe9b8	-0.05466625
42	0xbd99ed2b	-0.07515939
43	0xbde02e80	-0.10946369
44	0x3dcc2adc	0.09969112
45	0x3eae9d74	0.34104502
46	0xbe02d1d7	-0.1277536
47	0xbe0f4766	-0.1399208
48	0x3d81e763	0.06342962
49	0xbe147353	-0.14497118
50	0x3db57acf	0.088613145
51	0x3eb4c92b	0.3530973
52	0x3e2a2cfc	0.16618723
53	0x3d68804b	0.056762975
54	0x3ddc4e5a	0.10757132
55	0x3e4c01f4	0.1992262
56	0x3dafc863	0.085831426
57	0x3e2529b0	0.16129184
58	0x3e6fedaa	0.23430505
59	0x3e4c38c8	0.19943535
60	0xbdda898f	-0.106707685
61	0x3e894d16	0.26816624
62	0x3e34177e	0.17587087
63	0x3db46a69	0.088093586
64	0x3e87b60b	0.26506075
65	0xbe00a8cd	-0.12564392
66	0xbdc045d4	-0.09388319
67	0x3d470b50	0.048594773
68	0x3e71f807	0.23629771
69	0x3da98390	0.08277047
70	0x3e220b30	0.1582458
71	0x3cb26890	0.021778375
72	0x3ca80734	0.020511247
73	0x3e4c43c7	0.1994773
74	0xbe0e77bb	-0.13912861
75	0xbe49d32b	-0.1970946
76	0x3ddac901	0.1068287
77	0x3e9bda3f	0.30439946
78	0x3e920494	0.28519118
79	0x3da4b061	0.08041454
80	0xbe65b895	-0.22433694
81	0x3d321f80	0.043487072
82	0x3e289925	0.1646467
83	0xbe5d2bc4	-0.21598727
84	0xbe79d480	-0.24397469
85	0x3e08e9cd	0.13370438
86	0x3de823a8	0.11334926
87	0xbe0423aa	-0.1290423
88	0x3e3d155b	0.18465178
89	0x3becb03a	0.0072231563
90	0xbd77fe65	-0.060545344
91	0xbe52c438	-0.20582664
92	0x3c7a6d74	0.015284885
93	0xbe3abe38	-0.18236625
94	0xbc85e8f9	-0.016346442
95	0xbd08d3d9	-0.03340516
96	0x3dbf9546	0.093546435
97	0x3d113e13	0.03545959
98	0x3e6b7bb9	0.22996415
99	0xbe7291eb	-0.23688476
100	0x3e1185c4	0.14211184
101	0x3da0eda4	0.07857826
102	0xbe22e201	-0.15906526
103	0x3eb00af6	0.34383363
104	0x3e75eaa6	0.24015293
105	0xbdd4ea2f	-0.103962295
106	0x3d535567	0.051595118
107	0x3e746274	0.23865682
108	0x3dadf2e9	0.08493597
109	0x3cb4cdcf	0.022070793
110	0x3e33fe27	0.1757742
111	0x3dc99cda	0.0984437
112	0xbd224fc7	-0.039626863
113	0xbe893f2b	-0.26806006
114	0xbe465c1a	-0.19371071
115	0x3e1e90c8	0.15484917
116	0xbde0add9	-0.10970659
117	0xbc6ffc32	-0.01464753
118	0x3e93b616	0.28849858
119	0x3b5c0aca	0.0033575767
120	0x3eac581b	0.3366097
121	0xbe4e2315	-0.2013057
122	0x3e75fdb8	0.24022567
123	0xbe7c0846	-0.24612531
124	0x3d8f49cb	0.06996497
125	0x3ecd0e5e	0.40050024
126	0x3dd9c1a8	0.1063264
127	0x3ea3d1bf	0.3199596
128	0xbdc25206	-0.09488301
129	0x3ca38d6d	0.019964898
130	0x3d0506f2	0.032477327
131	0x3e1714b3	0.1475399
132	0xbdc71b9a	-0.097220615
133	0x3da766d8	0.08173913
134	0xbc80b818	-0.015712783
135	0xbd50e082	-0.050995357
136	0x3e8b3017	0.27185127
137	0xbd7c60ad	-0.061615635
138	0x3e241ec5	0.16027363
139	0xbe3dc5ea	-0.1853253
140	0xbd84f98e	-0.06492911
141	0x3e335c04	0.1751557
142	0xbe406d90	-0.18791795
143	0xbda90ec5	-0.0825477
144	0x3e779981	0.24179651
145	0xbd7fe118	-0.062470526
146	0xbed63f93	-0.41845378
147	0x3eacb1b7	0.33729336
148	0xbe87d423	-0.26529035
149	0xbe93bcd7	-0.2885501
150	0xbdcf7e37	-0.101314954
151	0xbbbb40c4	-0.005714508
152	0x3e8fbc8b	0.28073534
153	0x3c0796bd	0.008275685
154	0x3d8667c5	0.06562761
155	0x3d8423fa	0.064521745
156	0x3e1b4ad2	0.1516526
157	0x3e1fc494	0.15602332
158	0xbdfab0d6	-0.1224076
159	0x3de98ff6	0.114044115
160	0x3d6b5e3b	0.057462912
161	0xbda8b92c	-0.08238444
162	0x3eb9bdff	0.36277768
163	0xbe530d33	-0.20610504
164	0x3d87536c	0.06607708
165	0xbea822d0	-0.3283906
166	0xbd779458	-0.060444206
167	0x3e093f78	0.13403118
168	0xbd89f500	-0.06736183
169	0xbd41370c	-0.047171637
170	0x3ce7a3cc	0.028276347
171	0x3e64bce2	0.22337678
172	0x3e502597	0.2032684
173	0xbe0cd071	-0.13751389
174	0xbe4e2972	-0.20132998
175	0x3ab6f4a5	0.0013958408
176	0xbe290e84	-0.16509444
177	0x3e8bb1fe	0.27284235
178	0xbe0ea81d	-0.13931318
179	0xbe2a0284	-0.16602522
180	0x3ea57e93	0.3232313
181	0x3e183a1f	0.14865921
182	0x3dbeaca4	0.09310272
183	0x3e5d69e3	0.21622424
184	0x3a37211c	0.00069858297
185	0x3e886d7a	0.26646024
186	0x3df9a269	0.121891804
187	0xbee9cdae	-0.45664734
188	0xbe7806ce	-0.24221346
189	0x3e57ecc8	0.21086419
190	0xbd650aeb	-0.055918615
191	0x3de4d875	0.111740984
192	0xbe1080a5	-0.14111574
193	0xbde0d59f	-0.10978245
194	0x3e628aef	0.22123311
195	0xbe153eb7	-0.14574705
196	0xbe4c5340	-0.19953632
197	0xbdb676fb	-0.089094125
198	0x3d72c210	0.059267104
199	0x3eb388b0	0.35065222
200	0xbe123a85	-0.14280136
201	0xbe8d21f7	-0.27564976
202	0x3e72e78f	0.23721145
203	0x3e052532	0.1300247
204	0x3e96e91e	0.2947473
205	0x3de7b134	0.11313096
206	0xbe95f625	-0.29289356
207	0x3e8df476	0.2772557
208	0x3dc91c26	0.09819822
209	0x3e125f6e	0.14294216
210	0xbcfd574b	-0.030925414
211	0x3e933f4b	0.28759226
212	0xbd9d79a7	-0.07689219
213	0x3d0d2f85	0.034469146
214	0xbe4c0f11	-0.19927622
215	0xbe1bae90	-0.15203309
216	0x3dd66473	0.10468378
217	0xbd847f9a	-0.064696506
218	0x3e90f487	0.2831156
219	0x3e00b1f3	0.12567882
220	0xbde85a8c	-0.113453954
221	0xbd27dc3a	-0.04098151
222	0xbd5521e7	-0.052034285
223	0xbe0b296e	-0.13590023
224	0xbd870c8c	-0.0659419
225	0xbd29cfd2	-0.04145796
226	0xbdaffd53	-0.0859324
227	0xbc8bc8fc	-0.01706361
228	0xbd38b2c3	-0.045092355
229	0xbd727192	-0.05919034
230	0xbdbbf635	-0.0917782
231	0x3e84ed3a	0.2596224
232	0xbd7ac9b6	-0.061227523
233	0x3d97b997	0.07408445
234	0x3e4e9c78	0.20176876
235	0x3d76f261	0.060289744
236	0x3dc1958c	0.09452352
237	0x3e006320	0.12537813
238	0x3ea70a44	0.3262502
239	0x3d9b04b2	0.07569255
240	0x3ea080fd	0.3134841
241	0xbdd1427c	-0.10217759
242	0xbd118ff0	-0.03553766
243	0x3e063cd8	0.13109148
244	0x3e44913a	0.19196025
245	0xbe709df2	-0.23497751
246	0x3ed7a404	0.42117321
247	0x3dc72afb	0.09724995
248	0x3dad9ff5	0.08477775
249	0x3eac8e97	0.33702537
250	0xbdef0f7b	-0.116728745
251	0x3ebe443b	0.3716143
252	0x3e05a204	0.13050085
253	0xbdcda781	-0.100417145
254	0xbd2a1f08	-0.0415335
255	0xbd6be916	-0.057595335

fc1.bias f4 [64]
0	0x3cd31bd8	0.025770113
1	0x3f20ae8f	0.62766355
2	0x3f32e830	0.6988554
3	0x3f856cab	1.0423788
4	0x3cdae092	0.026718412
5	0x3dd6afd8	0.10482758
6	0x3f16bbde	0.5888041
7	0x3e5d5f25	0.21618326
8	0x3efa78c9	0.48920277
9	0x3e5b73f8	0.21430957
10	0x3ec78555	0.38968912
11	0x3dc4ffdf	0.09619116
12	0x3f1c149c	0.6096895
13	0x3f01db06	0.5072483
14	0xb98add8f	-0.00026486485
15	0x3f41214e	0.75441444
16	0x3e0b2a2d	0.13590308
17	0x3eeb8e2d	0.4600691
18	0x3ea3792a	0.31928378
19	0x3e79ba5e	0.243875
20	0x3f71db73	0.9447548
21	0x3ef11a28	0.47090268
22	0x3ea0b9ea	0.3139184
23	0x3f833378	1.0250082
24	0x3e8b9b58	0.27266955
25	0x3daac269	0.08337862
26	0x3f5a7c67	0.8534607
27	0x3ed4e159	0.41578177
28	0x3ecc2428	0.39871335
29	0x3da5fd53	0.081049584
30	0x3e4fd288	0.20295155
31	0x3f1a9f25	0.60399085
32	0x3f5019d4	0.8128941
33	0x3e2f32e2	0.17109254
34	0x3f101c72	0.56293404
35	0x3f1d1442	0.61359036
36	0x3ed184a5	0.40921512
37	0x3e3693f0	0.17829871
38	0x3f18bd6e	0.59664047
39	0x3daaa1dc	0.083316535
40	0x3f21dcdd	0.63227636
41	0xbd18348a	-0.03715948
42	0x3d87b1c8	0.06625706
43	0x3e907543	0.28214464
44	0x3ef0f68a	0.47063094
45	0x3e673704	0.2257958
46	0x3edafffe	0.42773432
47	0x3f5a11ab	0.8518321
48	0xbe9831a3	-0.2972537
49	0x3f131ace	0.57462776
50	0xbb01722c	-0.001975189
51	0x3ded5f5c	0.11590454
52	0x3f3a0ef5	0.7267907
53	0x3e85abd8	0.2610767
54	0x3e6c4001	0.2307129
55	0x3e7a3220	0.24433184
56	0x3ed094e7	0.40738603
57	0x3e9a9108	0.30188775
58	0x3f03a7b0	0.51427746
59	0x3e08644b	0.13319509
60	0x3e4f1ddf	0.20226239
61	0x3eca3a10	0.39497423
62	0x3e06555f	0.13118504
63	0x3eb514c4	0.35367405

fc2.weight f4 [64, 64]
0	0x3c2e6ec1	0.010646523
1	0x3e1f9604	0.1558457
2	0x3e9ab259	0.30214193
3	0x3f59e85c	0.8512018
4	0xbbd04e2b	-0.0063569746
5	0x3e31bfb6	0.17358288
6	0x3e1d99bc	0.15390676
7	0x39fbf3f6	0.00048056216
8	0x3e89bb96	0.2690093
9	0x3df63367	0.12021523
10	0xbc8b6897	-0.017017646
11	0x3e59a0fa	0.21252814
12	0x3e35cdf7	0.1775435
13	0x3e9001b3	0.28126296
14	0x3db1c83e	0.08680771
15	0x3e328feb	0.17437713
16	0x3d138120	0.036011815
17	0x3e573ebb	0.21020024
18	0x3e5db186	0.21649751
19	0x3dbf8ecd	0.09353409
20	0x3f445847	0.766972
21	0x3c1053ec	0.008809071
22	0x3de6d058	0.11270207
23	0x3f423d7c	0.7587507
24	0x3e3af4ea	0.1825749
25	0x3db2c431	0.08728827
26	0x3f1833b7	0.5945391
27	0x3c4b3db3	0.012404847
28	0x3da5fe87	0.08105188
29	0x3d2b38a2	0.041802056
30	0x3e449274	0.19196492
31	0x3e74fcf4	0.23924619
32	0x3f04a73d	0.51817685
33	0x3caed646	0.021342408
34	0x3eef5d5e	0.4675092
35	0x3e5ddf47	0.21667205
36	0x3e75d060	0.2400527
37	0x3decf3a5	0.11569909
38	0x3e7e52d6	0.24836287
39	0x3c7d0c73	0.015444863
40	0x3dc4f037	0.0961613
41	0x3d25f714	0.040518835
42	0x3d8b7e10	0.06811154
43	0x3e09ba74	0.13450032
44	0xbba2ac25	-0.004964369
45	0x3dfcb935	0.12340013
46	0x3cbaf800	0.022823334
47	0x3efa1adb	0.48848614
48	0x3c8d5248	0.017251149
49	0x3e6ee667	0.23330079
50	0x3e558628	0.20851958
51	0x3e1178ca	0.14206234
52	0x3ee6796b	0.4501451
53	0x3dcf1bdf	0.10112738
54	0x3e103949	0.14084353
55	0x3cf6ded6	0.030135553
56	0x3deffbf1	0.11717976
57	0x3e550c18	0.20805395
58	0x3e2d8359	0.16944636
59	0x3cdd6f9a	0.027030755
60	0xbb5c2525	-0.0033591476
61	0x3e0bd7b2	0.136565
62	0x3b9c6192	0.0047723735
63	0x3e29ff74	0.16601354
64	0x3d88d3e0	0.06681037
65	0xbe0d93ea	-0.13825956
66	0xbd7fd5ff	-0.062459942
67	0xbd86703f	-0.06564378
68	0xbe0794e4	-0.13240391
69	0xbd196bd1	-0.037456337
70	0xbdac5c6d	-0.08416066
71	0xbca7f2d9	-0.020501541
72	0xbd71c724	-0.059027806
73	0xbdecd193	-0.115634106
74	0x3b841e4a	0.004031931
75	0x3d6d0dc8	0.05787447
76	0xbdd05c0d	-0.10173807
77	0xbd186eec	-0.03721516
78	0xbcc534a1	-0.024072947
79	0xbdcb5696	-0.09928624
80	0xbd93bb7d	-0.07213495
81	0x3bb88b7b	0.0056318617
82	0xbe0ab839	-0.13546838
83	0xbd8330d5	-0.06405798
84	0x3d0680be	0.032837622
85	0xbd8eb6dc	-0.069684714
86	0x3be9813d	0.007126002
87	0x3d64d5d9	0.055868004
88	0x3dd97686	0.1061831
89	0xbd81f3a4	-0.06345299
90	0x3b3e9aa7	0.002908388
91	0xbdecb7d0	-0.11558497
92	0x3c20283b	0.009775217
93	0xbe0cc6ba	-0.13747683
94	0x3c11cf75	0.008899559
95	0xbddfea7b	-0.109333955
96	0xbd330c40	-0.043712854
97	0x3c143250	0.009045199
98	0xbd17bdbd	-0.037046183
99	0xbddc3385	-0.10752014
100	0xbd44568e	-0.047934107
101	0x3d0512b5	0.032488544
102	0xbd169251	-0.036760632
103	0xbdad63cb	-0.084662996
104	0xbe082ef4	-0.13299161
105	0x3d0206cd	0.031744767
106	0x3d8cf579	0.06882758
107	0xbe06de6e	-0.13170788
108	0x3d87ee27	0.06637221
109	0xbdf7c2ad	-0.12097678
110	0xbde5a2fa	-0.11212726
111	0x3d94f635	0.07273523
112	0x3dace322	0.0844176
113	0xbd2c74d1	-0.042103592
114	0x3c4f2dad	0.012645167
115	0xbe09fcb6	-0.13475308
116	0x3d9948fa	0.07484622
117	0x3c70a16c	0.0146869235
118	0x3c42c1ca	0.011887023
119	0x3dd0fbc6	0.10204272
120	0xbe0400c9	-0.12890925
121	0xbdf9ebb3	-0.12203159
122	0xbdd1cf40	-0.10244608
123	0x3d042b68	0.032267958
124	0xbe00ee99	-0.12591018
125	0x3d9c431b	0.07629987
126	0xbd4d3127	-0.050095703
127	0x3d54baa3	0.051935803
128	0xbb0a03e7	-0.0021059455
129	0x3e735aee	0.23765156
130	0x3e69bc1c	0.22825664
131	0x3f2d126c	0.67606235
132	0x3e61753e	0.2201738
133	0x3d5a006e	0.053223066
134	0x3c6dd69b	0.014516498
135	0x3e4cc508	0.19997036
136	0x3e267a8e	0.16257688
137	0x3e5d6b03	0.21622853
138	0x3cacfe95	0.021117488
139	0x3dce9a65	0.10088042
140	0x3e8c2197	0.27369377
141	0x3e7d2ad7	0.24723373
142	0xbcc2ea80	-0.023793459
143	0x3e5102fb	0.20411293
144	0x3df4c948	0.11952454
145	0x3e867cd6	0.26267117
146	0x3debcbe6	0.115135
147	0xbba15703	-0.0049237027
148	0x3f35e9c3	0.7105982
149	0x3e3b3c14	0.18284637
150	0x3ddcce28	0.10781509
151	0x3f54aadb	0.83073205
152	0x3cf53d0a	0.029936332
153	0x3e09544d	0.13411064
154	0x3f2f1d74	0.68404317
155	0x3e3b5690	0.1829474
156	0x3e344d78	0.17607677
157	0x3e1f7bc1	0.15574552
158	0x3e51ad52	0.20476273
159	0x3d8a977c	0.067671746
160	0x3eb6d618	0.35710216
161	0x3e1691d1	0.14704062
162	0x3e8913b9	0.2677286
163	0x3e61d313	0.22053175
164	0x3da41c8b	0.08013257
165	0x3e09a5ba	0.13442126
166	0x3e44ce5c	0.19219345
167	0x3e3010cd	0.17193909
168	0x3e212e58	0.15740335
169	0x3e00d1cb	0.1258003
170	0xbb109f0b	-0.0022067453
171	0x3cfff89b	0.031246474
172	0x3e04ab2f	0.12955926
173	0x3e55b679	0.20870389
174	0x3e1b6f8a	0.15179268
175	0x3ee4b5ec	0.44670045
176	0xbdd0beee	-0.10192667
177	0x3e14d437	0.14534079
178	0x3e134404	0.14381415
179	0x3e31c539	0.1736039
180	0x3ea310b8	0.31848693
181	0x3dcdd524	0.10050419
182	0x3c919424	0.017770834
183	0x3e1a483e	0.1506662
184	0x3d81b6d3	0.06333699
185	0x3e93d894	0.28876173
186	0x3e2f0975	0.17093451
187	0xbca883da	-0.020570684
188	0x3d9c314e	0.076265916
189	0x3e1eb233	0.15497665
190	0x3d81b7ab	0.0633386
191	0x3e389240	0.1802454
192	0x3d4be5f1	0.049779836
193	0x3e6e7a57	0.23288856
194	0x3e7e378f	0.24825881
195	0x3f4a48b8	0.7901721
196	0x3e396ecd	0.18108673
197	0x3c4b8a66	0.0124231335
198	0x3e44894d	0.19193001
199	0x3c7eaa8a	0.015543589
200	0x3d08e10b	0.033417743
201	0x3e1ede01	0.15514375
202	0x3cd6f792	0.026241098
203	0x3e746a33	0.23868637
204	0x3e859921	0.2609339
205	0x3eae178a	0.34002334
206	0x3e28e9ed	0.16495486
207	0x3e81336c	0.25234544
208	0x3da08325	0.07837514
209	0x3e932263	0.28737172
210	0x3db2b200	0.08725357
211	0x3e2e16f9	0.17000951
212	0x3f4110b3	0.75416106
213	0x3d1eaedc	0.038740978
214	0x3c839e7c	0.016066782
215	0x3f3c8357	0.7363791
216	0x3d1919f0	0.03737825
217	0x3e070591	0.13185717
218	0x3f18c040	0.5966835
219	0x3d203c80	0.039120197
220	0xbcd46cd1	-0.025930794
221	0x3dab6e92	0.08370699
222	0x3df5d570	0.120036006
223	0x3df8c0ae	0.12146126
224	0x3ec5f830	0.38665915
225	0x3b179349	0.002312856
226	0x3e8eb3b1	0.2787147
227	0x3e446082	0.1917744
228	0x3e8161d2	0.25269943
229	0x3dadc702	0.08485223
230	0x3e464c7c	0.19365114
231	0x3d510c66	0.051037215
232	0x3e6344ef	0.22194265
233	0xbcbd7a7f	-0.0231297
234	0x3e4d789b	0.20065539
235	0x3e1b7c05	0.15184028
236	0x3e4136f9	0.18868627
237	0x3e21a647	0.15786086
238	0x3d0fd907	0.035119083
239	0x3ef0d310	0.47036028
240	0xbde4a60c	-0.111644834
241	0x3e36d675	0.17855246
242	0x3e07358f	0.13204025
243	0x3e75fefc	0.2402305
244	0x3ee6eac1	0.45100978
245	0xbc96e25f	-0.018418489
246	0x3e828c6a	0.25497752
247	0x3c5bacc7	0.013407893
248	0x3e10f723	0.14156775
249	0x3e4bc019	0.19897498
250	0x3e5db48a	0.21650901
251	0x3daa98df	0.08329939
252	0x3e4f9f14	0.20275527
253	0x3da8b91b	0.08238431
254	0x3d40783c	0.046989664
255	0x3de68846	0.11256461

fc2.bias f4 [64]
0	0x3e36ac4b	0.17839162
1	0xbb820e3f	-0.0039689834
2	0x3e2d7860	0.1694045
3	0x3eb7ebb5	0.35922018
4	0x3d88591f	0.066576235
5	0x3d9a443b	0.07532545
6	0x3eb19f34	0.34691775
7	0x3f52a507	0.8228306
8	0x3df68a82	0.12038137
9	0xbd098d46	-0.033581994
10	0x3e9f5930	0.31122732
11	0x3e929a79	0.28633478
12	0x3e4b0c4b	0.19828908
13	0x3e7ef19c	0.24896854
14	0x3e8526cd	0.26006165
15	0x3eaad4f4	0.33365595
16	0x3f55120b	0.83230656
17	0x3eaee4b5	0.34158865
18	0xbdcb0038	-0.09912151
19	0x3df7eabf	0.12105321
20	0xbdea5e4a	-0.114437655
21	0xbd932487	-0.071847014
22	0x3c8e62a1	0.017381014
23	0x3f0d8ce9	0.55293137
24	0xbd473509	-0.048634563
25	0x3e503164	0.20331341
26	0xbe03a561	-0.12856056
27	0x3e1f5261	0.15558769
28	0x3e91e730	0.28496695
29	0xbe137cd5	-0.14403088
30	0x3f1a570a	0.6028906
31	0x3e8e0f61	0.27746108
32	0xbdddbaf7	-0.10826676
33	0x3daa4a08	0.083149016
34	0x3ce02791	0.027362617
35	0x3e06b4c7	0.13154899
36	0x3e8ffa01	0.28120425
37	0x3e2b0871	0.16702439
38	0x3e669981	0.22519495
39	0x3e8a7098	0.27039027
40	0x3e14ef72	0.14544466
41	0x3e9f3b32	0.3109985
42	0xbdc3ff42	-0.09570171
43	0xbde0b9a1	-0.10972906
44	0x3e69d11f	0.2283368
45	0x3e943071	0.28943208
46	0xbd79ada1	-0.0609566
47	0x3d7213d5	0.059100945
48	0x3ecd097d	0.400463
49	0x3ea279f8	0.3173368
50	0x3e2c3b2f	0.16819452
51	0xbdf67fbd	-0.12036083
52	0x3e8fd0ca	0.2808898
53	0x3f5da3ae	0.8657788
54	0x3e9cca8c	0.3062328
55	0x3ebc042b	0.3672193
56	0x3ebfb1e3	0.37440404
57	0x3eb226ce	0.3479523
58	0x3e9d6870	0.30743742
59	0x3ed76e01	0.42076114
60	0xbccd19f2	-0.025036786
61	0x3e56f693	0.20992498
62	0x3e8ff9e8	0.2812035
63	0x3e4a3ab7	0.1974896

fc3.weight f4 [3, 64]
0	0x3e03b4c7	0.1286193
1	0xbd015356	-0.031573616
2	0x3e1c0524	0.15236336
3	0x3df07b7c	0.11742303
4	0xbc5a5c10	-0.0133276135
5	0xbd424e0f	-0.047437724
6	0x3e53d583	0.20686917
7	0x3f005540	0.5013008
8	0x3e32febd	0.17479987
9	0x3b1e76c8	0.0024179686
10	0x3e3d1c2e	0.18467781
11	0x3e3db432	0.1852577
12	0x3e4500a1	0.19238521
13	0x3dedeb73	0.11617174
14	0x3e388b92	0.18021992
15	0x3dc50c8b	0.09621533
16	0x3ea4167d	0.32048407
17	0x3e6d1ac1	0.23154737
18	0xbdc827da	-0.09773226
19	0x3e69e59f	0.228415
20	0x3dccb1c4	0.099948436
21	0xbcd1fc45	-0.025632987
22	0xbda9c8a6	-0.08290224
23	0x3e8e90c5	0.27844825
24	0xbc68be67	-0.014205552
25	0x3e5a9f26	0.21349773
26	0x3c8270c1	0.015922906
27	0x3e6852e8	0.22687876
28	0x3e820a29	0.25398377
29	0xbd26eab8	-0.04075119
30	0x3e4526e2	0.19253114
31	0x3e59d955	0.21274312
32	0xbbdd0e2a	-0.0067460733
33	0x3d5009e0	0.050790668
34	0xbcb3ecdc	-0.02196353
35	0x3e050406	0.12989816
36	0x3e505152	0.20343521
37	0x3e6f7845	0.23385723
38	0x3df788c2	0.12086631
39	0x3e209a67	0.156839
40	0x3d9a2a09	0.07527549
41	0x3e471c65	0.19444425
42	0xbd589e48	-0.052885324
43	0x3d7abaee	0.061213426
44	0x3e33c34e	0.17554972
45	0x3e699c11	0.22813441
46	0xbdc758a3	-0.09733703
47	0xbd92cc69	-0.071678944
48	0x3e570fb5	0.21002086
49	0x3e6738be	0.22580239
50	0x3dbc42b1	0.09192408
51	0x3d26b0f0	0.040696084
52	0x3e1d7f58	0.15380609
53	0x3f312484	0.69196343
54	0x3e766add	0.24064203
55	0x3df09d81	0.117487915
56	0x3e31f88a	0.17379966
57	0x3e529da4	0.20567948
58	0x3e0e4d31	0.13896634
59	0x3e94f6b0	0.29094458
60	0xbd56e7ca	-0.052467145
61	0x3e4c8ea4	0.19976288
62	0x3e38b23b	0.1803674
63	0x3e3276bb	0.17428105
64	0x3e60007e	0.21875188
65	0xbd28e0f0	-0.041230142
66	0x3e4b164c	0.19832724
67	0x3e0f6038	0.14001548
68	0xbd94aade	-0.07259153
69	0xbdb9b53a	-0.09067769
70	0x3e617983	0.2201901
71	0x3eaa2758	0.33233142
72	0x3e2715d3	0.16316919
73	0xbda8dea1	-0.08245588
74	0x3db5e185	0.08880905
75	0x3e79e849	0.24405016
76	0x3e787309	0.24262632
77	0x3e475e93	0.19469671
78	0x3e6711f2	0.2256544
79	0x3e43a6a6	0.1910654
80	0x3ed33305	0.41249862
81	0x3e717f8d	0.23583813
82	0x3dbed454	0.09317842
83	0x3e6928de	0.22769496
84	0xbdcaf6bc	-0.09910342
85	0xbd259a31	-0.04043025
86	0xbcdc93b7	-0.026925905
87	0x3eb18409	0.34671047
88	0xbda63a92	-0.0811664
89	0x3e635bb1	0.22202946
90	0xbdb9cf37	-0.09072726
91	0x3e0e3d9d	0.13890691
92	0x3e499a18	0.19687688
93	0xbd7d1bcb	-0.061794084
94	0x3e64dbcf	0.22349475
95	0x3e48abc6	0.19596776
96	0xbd81666b	-0.06318363
97	0xbd7be082	-0.061493404
98	0x3cd0ec00	0.025503159
99	0x3e3f6711	0.1869166
100	0x3e3d9e93	0.18517523
101	0x3e370fa0	0.17877054
102	0x3e4b327b	0.19843476
103	0x3e766dc1	0.24065305
104	0x3e816f8a	0.2528041
105	0x3de9e875	0.11421291
106	0x3d4b5525	0.049641747
107	0xbd3bd400	-0.045856476
108	0x3e580618	0.21096075
109	0x3e700dbb	0.23442738
110	0x3e135632	0.1438835
111	0x3d9bf1ff	0.076145165
112	0x3e37cdff	0.17949675
113	0x3e4566fa	0.19277564
114	0x3e2d87f5	0.16946395
115	0xbd55fefc	-0.052245125
116	0x3e46f3b2	0.194289
117	0x3f28ee96	0.65989053
118	0x3e00b417	0.12568699
119	0x3e15c27f	0.14624976
120	0x3dc46ea1	0.09591413
121	0x3e5a451f	0.2131543
122	0x3e2c7c3c	0.16844267
123	0x3e28f8ed	0.16501208
124	0xbd73d9a7	-0.05953374
125	0x3e2a073e	0.16604325
126	0x3e69ab50	0.22819257
127	0x3e312b3b	0.17301647
128	0x3e29848e	0.16554472
129	0x3bbae4be	0.0057035377
130	0x3e25b1cf	0.1618111
131	0x3e788acc	0.24271697
132	0xbca1555c	-0.019694023
133	0x3d2673ae	0.040637664
134	0x3e258070	0.16162276
135	0x3ecb72a5	0.39735904
136	0x3e5aea6e	0.2137849
137	0xbce2c6e3	-0.027682727
138	0x3e5d0b34	0.21586305
139	0x3e18b6e9	0.14913525
140	0x3e2e2bf4	0.17008954
141	0x3e60afea	0.21942106
142	0x3e11c2da	0.14234486
143	0x3e5be8ec	0.21475571
144	0x3eeab9f3	0.45844993
145	0x3e2a1150	0.16608167
146	0xbcad0b67	-0.021123601
147	0x3dfbc06b	0.1229256
148	0xbd98b8c4	-0.07457116
149	0xbc6b5d40	-0.014365494
150	0xbbb3a0a7	-0.0054817977
151	0x3e97e53b	0.29667076
152	0xbd8b9c11	-0.06816877
153	0x3e80a06e	0.25122398
154	0xbce606d9	-0.028079437
155	0x3e45be9e	0.19310996
156	0x3e784911	0.24246623
157	0xbdb1d4d7	-0.08683174
158	0x3e888b72	0.26668888
159	0x3e4f3127	0.20233594
160	0xbd782416	-0.06058129
161	0xbd613560	-0.054982543
162	0xbb204c35	-0.0024459485
163	0x3e4c31c7	0.19940864
164	0x3ddef7e5	0.10887126
165	0x3e6b09e1	0.22952987
166	0x3e71fcb6	0.23631558
167	0x3e52fe2f	0.20604776
168	0x3e47e291	0.19520022
169	0x3e32670d	0.17422123
170	0xbd23820e	-0.03991895
171	0xbd539500	-0.05165577
172	0x3e53744f	0.20649837
173	0x3db285a8	0.08716899
174	0xbd02d32e	-0.031939678
175	0xbd710007	-0.058837917
176	0x3daad93d	0.08342216
177	0x3de261d1	0.11053813
178	0x3e5e816a	0.21729055
179	0xbda18b7c	-0.07887933
180	0x3e7b70a8	0.24554694
181	0x3f1dad14	0.6159222
182	0x3e2d8b08	0.16947567
183	0x3e6b7600	0.22994232
184	0x3e7d0fe5	0.24713095
185	0x3e30c8fe	0.17264172
186	0x3e5cc4cf	0.21559452
187	0x3e64d14f	0.2234547
188	0xbc06b53d	-0.0082219215
189	0x3e383adb	0.17991202
190	0x3df47508	0.119363844
191	0x3e0551ff	0.1301956

fc3.bias f4 [3]
0	0x3e00bf4e	0.12572977
1	0x3e45f07a	0.19330016
2	0x3e8e2e0d	0.2776951
